mountain_car_saved_weights.npy (npy, 464 bytes, 1 tensors)

array f8 [16, 3]
00000000: 432b 9567 3f51 33c0 9ad6 39e5 f750 33c0
00000010: 5b13 b497 e54a 33c0 eae6 7631 1652 d5bf
00000020: 752a 9ea8 fb33 d8bf c8df ed7a fca1 e0bf
00000030: 644b f78f 2c5e 2540 b78f 3625 4c49 2540
00000040: 501d 7ebf eba2 2540 776f 88c7 9d03 e43f
00000050: 7e85 a283 5123 e33f 15fb d558 8415 e03f
00000060: e1fb 2854 fb7b 15c0 89a7 d9e7 2057 15c0
00000070: 8f2c 30fd 7eeb 14c0 cc3d 368b 0446 2140
00000080: d7ab 76a8 1e7c 2140 527d d4ae b733 2140
00000090: e866 0cb7 d830 f73f 7d05 bf89 fb86 f83f
000000a0: fbdc f679 b81e f93f 7226 e901 0b13 e6bf
000000b0: 0bfe 9f71 089f e4bf cdf4 0002 7bd2 e1bf
000000c0: bc31 a1ea fb1d 0b40 64fc d4e8 27b8 0a40
000000d0: fac0 91b8 f2e6 0a40 e3c4 5dc0 e930 ec3f
000000e0: eb86 00f0 bc41 ea3f 515f 5bb7 e6eb e93f
000000f0: e5d4 b25f f887 f63f e511 3667 e392 f53f
00000100: e842 9d33 bed4 f43f eadb 91dc a8ac f13f
00000110: 1c59 083b 5363 f13f 4a5e b720 6ace f03f
00000120: 7c1f 471b d542 e03f 42bf 8721 255d e03f
00000130: c67c 1e6d bef8 e13f 9543 2130 2844 db3f
00000140: 7ce3 e316 8c5b dc3f dad9 dcca 0dfb db3f
00000150: 1d8d 9673 97cd f63f 1b95 8f64 b401 f73f
00000160: 80d9 a1db d66d f73f 00fd b08c d4d4 c33f
00000170: 1c81 fdce c7e6 c43f 8045 b74f 3356 c73f
-19.31737372772046 -19.316282583828617 -19.292565804923793 -0.3331351740886094 -0.37817279306970103 -0.5197737122498376 10.683933733880345 10.643159068022085
10.81820486464008 0.6254414460304208 0.5980613299363282 0.5026265845370711 -5.371075930596789 -5.335086462649891 -5.22997661215335 8.636753416415466
8.74242140244125 8.601010764540352 1.449425425560941 1.5329547291479166 1.5700001491766773 -0.6898245847052762 -0.6444132060277651 -0.5569434203277069
3.3896406488840665 3.3399198713300837 3.3627676410179648 0.8809708363679899 0.8205246627369126 0.8100465375127702 1.4081958521103897 1.3483613998115456
1.3019392028983763 1.1046532264715503 1.08674929675687 1.0503941801051888 0.5081582577486041 0.5113702444923336 0.5616142398102049 0.42603497219266134
0.4430875991379748 0.4371981125908896 1.4251932635459703 1.4379161766203825 1.464316232622508 0.1549325644464048 0.1632928620047175 0.18231812851312768
